Model/hybrid_model.pth (torch, 548732 bytes, 11 tensors)

embedding.weight f4 [20, 64]
0.43854615 -1.5404475 0.32713917 0.034163494 -1.8659921 0.5435376 -1.1195837 -0.91807914
0.059454296 -0.04290013 0.6134118 0.23761396 0.81622624 -0.9482787 -1.8707188 1.1803172
1.1562828 -0.27237815 -0.0011207559 0.5035802 -2.1340601 0.3740047 0.25387624 0.2141145
0.56782395 1.0534561 -1.9270641 0.20079134 0.33475405 0.20038667 1.2559894 0.1632703
-0.19951585 2.1334825 0.11655164 -1.2263178 -1.3491001 0.35273936 0.3931437 0.016904984
1.2142274 -0.21889338 -2.0707767 1.3966634 0.86359894 0.24650463 0.014950026 -0.4411195
-0.10532924 -0.29989442 -0.065429576 -1.77876 0.32988697 -0.17432086 -1.4969152 0.33519834
-0.42250496 -0.953311 0.08125053 -0.3027258 0.038450487 0.44435382 0.65782416 1.3376578
-0.34330693 1.0256773 -0.68738884 0.19153441 0.37697285 0.40227386 0.36827287 -0.047746398
0.44453514 1.0866054 -0.5738707 -0.43063003 1.3377099 -0.9051591 -0.8224025 -0.31837943
-0.6437589 -0.004489576 0.6440423 0.153042 -0.061769053 0.014182239 1.7770946 0.69996095
-1.587203 0.099354625 1.2176456 0.06496481 0.74310404 0.18892561 -0.7203785 -1.1715881
0.4642958 1.2222129 -0.6166194 -0.51956207 -0.46805725 2.1518364 0.083355896 -0.8944735
-0.4235724 0.34229186 1.0352333 1.319136 -1.9493484 0.23121163 2.1294098 -0.46735686
0.7455767 -1.2082537 -1.0298697 -0.32433325 -0.6167255 -0.4791729 0.7746206 -0.9122448
-1.0878712 0.24142143 -0.18781154 0.35004526 0.47796494 -0.02726087 1.9830174 -1.7934549
0.7238534 -0.82708246 0.16354777 1.736433 0.12554964 0.9887575 1.7088118 -1.5726556
-0.5561475 -0.5853708 -2.2748399 -1.7508688 0.64048785 0.105865404 1.059965 1.2227066
0.91746104 -1.0288471 2.0964797 0.3615379 -0.8650536 0.080558844 -0.21582368 0.74198526
-0.23659773 -0.8019502 -0.2691497 0.17840193 -0.5042295 -0.11273769 1.1818829 -0.52978224
0.00826033 -0.7181594 -0.09006458 -0.19281316 0.081690535 0.15024516 0.32338828 0.2867342
-0.77373016 -0.016064685 1.4462111 1.50035 0.29272518 0.81877595 0.11374531 2.2504401
-0.69839674 0.41245756 0.12944935 -0.10914256 -0.2028088 0.4857404 -0.8935613 -0.40775314
0.6080667 0.9543021 0.036934905 -0.9958961 0.7876738 1.0631769 0.35252002 1.4410107
1.4377741 -1.3556111 1.9773816 -0.26624385 1.4423614 1.3814635 0.6531242 0.73407763
0.4713681 -0.5364845 0.5018242 1.3383042 -0.44345936 0.6013738 0.1297782 -0.54612166
-0.0039345925 0.1099554 0.16920774 1.0180637 -0.96775186 0.6932912 -0.5920821 -0.6684338
-0.11185863 -0.2166203 -0.61931014 -1.7983941 -0.6956273 0.5426963 0.4758438 -0.98053426
0.27309594 0.16950038 -0.59711385 -0.27119362 -0.40046984 1.6653178 -0.086623795 2.1245818
0.22624095 -0.9707444 1.1425 0.20488715 0.97607833 0.8716 -0.058329694 0.14486106
0.20187537 -1.177681 0.58743423 -0.2511308 0.44049752 -0.1982679 0.08131398 -0.61794055
-0.06492754 0.52695614 0.13072824 -0.4807947 -0.26854464 -0.1836266 0.29824072 0.6376398
00000000: 1f89 e03e 622d c5bf c97e a73e 05ef 0b3d
00000010: d4d8 eebf 4825 0b3f 854e 8fbf 3c07 6bbf
00000020: 5986 733d 0cb8 2fbd 8e08 1d3f 1351 733e
00000030: 34f4 503f 65c2 72bf b773 efbf a214 973f
00000040: 1301 943f 2675 8bbe 54e6 92ba a2ea 003f
00000050: 7194 08c0 8b7d bf3e 11fc 813e d540 5b3e
00000060: e95c 113f a6d7 863f 09aa f6bf 3f9c 4d3e
00000070: e264 ab3e 2a32 4d3e 43c4 a03f 5430 273e
00000080: e24d 4cbe fa8a 0840 a0b2 ee3d fbf7 9cbf
00000090: 50af acbf 419a b43e 224a c93e 527c 8a3c
000000a0: ce6b 9b3f 9625 60be 9b87 04c0 dec5 b23f
000000b0: d214 5d3f b66b 7c3e f4f0 743c 6ada e1be
000000c0: dbb6 d7bd c38b 99be f1ff 85bd 68ae e3bf
000000d0: f2e6 a83e 2b81 32be eb9a bfbf 1e9f ab3e
000000e0: 9252 d8be 310c 74bf ae66 a63d e0fe 9abe
000000f0: 427e 1d3d 5882 e33e 2a67 283f 5f38 ab3f
00000100: edc5 afbe 6549 833f b7f8 2fbf 9921 443e
00000110: 9602 c13e d7f6 cd3e 438e bc3e ba91 43bd
00000120: 1c9a e33e e315 8b3f 31e9 12bf 8a7b dcbe
00000130: 143a ab3f 82b8 67bf f888 52bf a102 a3be
00000140: 62cd 24bf 4b1d 93bb f5df 243f 0bb7 1c3e
00000150: 8c01 7dbd 9f5c 683c d677 e33f a430 333f
00000160: 7829 cbbf 707a cb3d d0db 9b3f 450c 853d
00000170: 113c 3e3f b775 413e ba6a 38bf 99f6 95bf
00000180: 2eb8 ed3e 7971 9c3f c5da 1dbf 0502 05bf
00000190: 33a5 efbe b0b7 0940 7fb6 aa3d 37fc 64bf
000001a0: 7bde d8be e140 af3e 8682 843f 73d9 a83f
000001b0: 4084 f9bf bec2 6c3e 4048 0840 6649 efbe
000001c0: 1dde 3e3f 0fa8 9abf c5d2 83bf 020f a6be
000001d0: b9e1 1dbf 2656 f5be 894d 463f e088 69bf
000001e0: 5d3f 8bbf 2e37 773e ab51 40be 2239 b33e
000001f0: d2b7 f43e 3052 dfbc 84d3 fd3f ee8f e5bf
00000200: 754e 393f adbb 53bf 1179 273e 7043 de3f
00000210: 1690 003e 361f 7d3f 58ba da3f c74c c9bf
00000220: af5f 0ebf dcda 15bf fa96 11c0 781c e0bf
00000230: 03f7 233f f6cf d83d efac 873f a681 9c3f
00000240: bade 6a3f 43b1 83bf b92c 0640 7f1b b93e
00000250: 2774 5dbf 09fc a43d e200 5dbe bff2 3d3f
00000260: ad46 72be 9c4c 4dbf fdcd 89be ffae 363e
00000270: 2f15 01bf 05e3 e6bd f047 973f cf9f 07bf
00000280: 5656 073c 4bd9 37bf c773 b8bd d070 45be
00000290: 5e4d a73d ded9 193e 2693 a53e d3ce 923e
000002a0: 2e13 46bf 169a 83bc 721d b93f 780b c03f
000002b0: 13e0 953e 4d9b 513f 4df3 e83d 3607 1040
000002c0: 21ca 32bf a32d d33e 5f8e 043e 2286 dfbd
000002d0: 1cad 4fbe f7b2 f83e 6fc0 64bf 05c5 d0be
000002e0: 42aa 1b3f 244d 743f 0e49 173d 0cf3 7ebf
000002f0: fda4 493f 2e16 883f 817d b43e 0a73 b83f
00000300: fb08 b83f aa84 adbf d71a fd3f 1d51 88be
00000310: 4c9f b83f ccd3 b03f 2633 273f 83ec 3b3f
00000320: 2957 f13e 0c57 09bf 8d77 003f 8d4d ab3f
00000330: 1b0d e3be a2f3 193f 94e4 043e a1ce 0bbf
00000340: c1ed 80bb 4c30 e13d cb44 2d3e e94f 823f
00000350: 96be 77bf 887b 313f b192 17bf 7a1e 2bbf
00000360: 2316 e5bd b6d1 5dbe 1c8b 1ebf c731 e6bf
00000370: a114 32bf 25ee 0a3f cca1 f33e 4b04 7bbf
00000380: 3bd3 8b3e 8291 2d3e 74dc 18bf e4d9 8abe
00000390: 620a cdbe 2229 d53f d167 b1bd 26f9 0740
000003a0: b5ab 673e b482 78bf 713d 923f f0cd 513e
000003b0: 45e0 793f 2d21 5f3f 1eeb 6ebd 7556 143e
000003c0: 6bb8 4e3e 40be 96bf 1762 163f 3794 80be
000003d0: e488 e13e be06 4bbe f287 a63d 5a31 1ebf
000003e0: bbf8 84bd 99e6 063f a0dd 053e b92a f6be
000003f0: af7e 89be 9d08 3cbe 02b3 983e 5d3c 233f

lstm.weight_ih_l0 f4 [512, 64]
-0.036852434 0.0537143 0.092014074 0.09824198 0.033284936 0.016652545 -0.00709987 -0.02034835
0.054730576 0.0026988368 -0.08134891 0.025070654 -0.031588078 -0.025929453 0.080781795 0.01985633
0.052491195 -0.07038396 0.000120869125 0.004799314 0.055254083 0.029129304 0.017997477 -0.010594461
-0.03414054 0.013332858 0.06297422 0.008806804 -0.041176785 -0.085780896 -0.07880812 -0.031229867
0.067705266 -0.058540758 -0.041094977 0.049357522 0.0702493 -0.041766543 0.049839728 0.01996283
0.052243315 0.018419718 0.04703621 0.055847753 0.05138686 0.046842046 -0.11226716 -0.09083924
-0.08692458 0.023092765 -0.04321592 0.04608591 -0.012188967 -0.075751245 0.061429553 -0.022727242
0.0086026145 -0.03512205 -0.0018813701 0.07490868 -0.026360456 0.07007166 -0.04741108 -0.037067622
0.0042707855 -0.030453164 -0.08297795 -0.0051844334 0.034924537 0.065845154 0.06204372 -0.079950154
-0.06845016 -0.027080333 -0.0716788 0.062245503 0.06962867 -0.04552904 0.07439908 -0.024807962
-0.06005381 -0.056851402 0.020076608 -0.007207696 0.034854565 -0.046387628 0.06885624 -0.014528062
-0.006104548 -0.056063198 -0.08771671 0.047634203 0.083431296 0.03675868 0.02021484 -0.034159854
0.0683362 0.0782045 0.033539258 0.06521345 0.024496034 0.03591599 0.050128303 -0.011979354
0.067725 0.027249707 0.0053148004 0.018962761 0.04818978 0.0072955294 0.07716966 0.004215848
-0.023890324 -0.051537957 0.07241407 -0.07570971 -0.014424422 -0.041579533 -0.06386934 0.025351778
0.007142885 -0.067610234 0.049383897 0.039834987 0.041197628 -0.08762541 0.05066008 -0.0035531921
-0.07354293 0.06634062 -0.023543864 0.039261024 0.0057941885 -0.039802674 -0.017255003 -0.03474275
0.038430423 0.06337067 -0.07643463 -0.05770974 -0.057632796 -0.0344222 0.034911424 -0.05973277
-0.030082688 0.008344607 -0.06121768 -0.06643304 0.053482257 0.052324902 0.06352673 -0.059817895
-0.02758412 -0.012991529 -0.00107034 0.06614936 -0.034930587 0.031458765 -0.0547327 -0.07700565
0.054008238 -0.010033263 -0.017034063 -0.07015978 0.041967902 -0.06543252 0.047182504 -0.03228219
-0.030372987 0.0005433405 -0.039245646 -0.009664977 -0.083789945 -0.023459107 0.055140533 -0.07207101
-0.078453586 -0.0042485143 -0.018168597 -0.017701171 -0.0065592583 -0.07368596 0.08731008 0.023696018
0.06826248 -0.08567028 0.07695035 0.07600749 0.06687931 -0.0060811113 -0.083754584 -0.017186973
-0.048494752 -0.0883345 0.07243462 -0.026964173 -0.018038943 -0.059371408 -0.025431987 0.004102323
-0.07764389 0.061733887 0.017891562 -0.06849434 0.06488022 0.046078082 0.064005345 0.1034429
-0.023738397 -0.04239512 0.019635668 -0.0018852692 0.08034225 -0.05994864 0.090680785 0.06827204
-0.029243207 -0.06532034 -0.052189484 0.035268158 -0.021293575 0.08016411 0.04159304 0.0043099276
0.057938926 -0.06242867 -0.06602426 0.0058183204 0.08551301 -0.069983356 0.086199306 0.05038944
0.092836626 -0.020141115 -0.06794568 -0.08610857 -0.0445816 0.033887945 -0.041704793 0.004502677
-0.06817135 0.06988681 -0.044623483 -0.040170595 -0.030765353 0.025868973 -0.0053222193 0.07840058
0.04358596 0.024479244 0.035759013 0.032255013 0.013876617 0.05962533 -0.04163276 -0.037414268
00000000: 94f2 16bd 8703 5c3d e071 bc3d 1733 c93d
00000010: c955 083d eb6a 883c 07a6 e8bb 95b1 a6bc
00000020: 2b2d 603d f8de 303b 429a a6bd f960 cd3c
00000030: 8062 01bd 016a d4bc ed70 a53d bea9 a23c
00000040: 0201 573d 7725 90bd 1e7b fd38 9043 9d3b
00000050: 1b52 623d 94a0 ee3c 726f 933c 6494 2dbc
00000060: f3d6 0bbd 0f72 5a3c a1f8 803d 6a4a 103c
00000070: fda8 28bd e5ad afbd 2766 a1bd c7d5 ffbc
00000080: 0fa9 8a3d 6fc8 6fbd 3553 28bd 1d2b 4a3d
00000090: ddde 8f3d 6513 2bbd be24 4c3d 1789 a33c
000000a0: 16fd 553d f3e4 963c 0aa9 403d 9dc0 643d
000000b0: 077b 523d 72dd 3f3d 53ec e5bd ec09 babd
000000c0: 8405 b2bd 0a2d bd3c 2d03 31bd 94c4 3c3d
000000d0: 3cb4 47bc 7823 9bbd 8e9d 7b3d 7b2e babc
000000e0: fbf1 0c3c 24dc 0fbd 4e98 f6ba b969 993d
000000f0: e2f1 d7bc bb81 8f3d 1f32 42bd 38d4 17bd
00000100: f2f1 8b3b ea78 f9bc 58f0 a9bd 2ee2 a9bb
00000110: 080d 0f3d d3d9 863d 8e21 7e3d e8bc a3bd
00000120: 992f 8cbd 93d7 ddbc 56cc 92bd 24f5 7e3d
00000130: 7a99 8e3d a97c 3abd 8b5e 983d 113a cbbc
00000140: fcfa 75bd 04dd 68bd b377 a43c 892e ecbb
00000150: a9c3 0e3d f400 3ebd 8004 8d3d 1c07 6ebc
00000160: a908 c8bb 86a2 65bd d2a4 b3bd 151c 433d
00000170: 07de aa3d 4590 163d 9899 a53c 34eb 0bbd
00000180: daf3 8b3d ae29 a03d 7660 093d a18e 853d
00000190: e8ab c83c a51c 133d 5653 4d3d 0d45 44bc
000001a0: 68b3 8a3d c73a df3c c727 ae3b cb57 9b3c
000001b0: a662 453d 560f ef3b 200b 9e3d 1925 8a3b
000001c0: a4b5 c3bc 7719 53bd d44d 943d b10d 9bbd
000001d0: 6954 6cbc 4d4f 2abd eecd 82bd 88ae cf3c
000001e0: dd0e ea3b 3c77 8abd c546 4a3d 032a 233d
000001f0: d8be 283d f374 b3bd f280 4f3d acdc 68bb
00000200: ad9d 96bd 97dd 873d 10df c0bc 2bd0 203d
00000210: 2ddd bd3b 2108 23bd 5d5a 8dbc 6a4e 0ebd
00000220: 3869 1d3d 7bc8 813d c289 9cbd 0c61 6cbd
00000230: 5e10 6cbd 4bfe 0cbd 48ff 0e3d 59aa 74bd
00000240: f86f f6bc d2b7 083c 64bf 7abd 0c0e 88bd
00000250: 3610 5b3d a352 563d 4d1a 823d 9c03 75bd
00000260: 18f8 e1bc 6cda 54bc a74a 8cba 5179 873d
00000270: 6013 0fbd e8da 003d 652f 60bd 23b5 9dbd
00000280: be37 5d3d 8e62 24bc 058b 8bbc eeaf 8fbd
00000290: 89e6 2b3d 7c01 86bd 7142 413d 543a 04bd
000002a0: c5d0 f8bc f76e 0e3a 0bc0 20bd da59 1ebc
000002b0: 109a abbd 502d c0bc 0adb 613d f799 93bd
000002c0: 46ac a0bd 1f37 8bbb 4fd6 94bc 0c02 91bc
000002d0: 0cef d6bb aae8 96bd a1cf b23d 271e c23c
000002e0: 33cd 8b3d e673 afbd 2598 9d3d d1a9 9b3d
000002f0: 05f8 883d 0f44 c7bb 8687 abbd b2cb 8cbc
00000300: 6fa2 46bd b8e8 b4bd 9a58 943d f8e3 dcbc
00000310: 68c6 93bc 6f2f 73bd be56 d0bc c86c 863b
00000320: c303 9fbd acdc 7c3d 5391 923c c346 8cbd
00000330: ecdf 843d 5fbc 3c3d 3c15 833d dfd9 d33d
00000340: 0777 c2bc 81a6 2dbd fbda a03c 231b f7ba
00000350: 7a8a a43d b58c 75bd d9b6 b93d 36d2 8b3d
00000360: 738f efbc acc6 85bd a4c4 55bd 5875 103d
00000370: dd6f aebc 152d a43d 775d 2a3d 4b3a 8d3b
00000380: 5e51 6d3d 34b5 7fbd ba37 87bd 9ca7 be3b
00000390: 7221 af3d 6f53 8fbd 4389 b03d 2865 4e3d
000003a0: 2121 be3d fbfe a4bc 1b27 8bbd b159 b0bd
000003b0: 329b 36bd 16ce 0a3d a5d2 2abd 318b 933b
000003c0: 6c9d 8bbd d120 8f3d 1dc7 36bd ec89 24bd
000003d0: 9f07 fcbc 2beb d33c 0366 aebb 7c90 a03d
000003e0: 3187 323d b288 c83c 0b78 123d d51d 043d
000003f0: c05a 633c b139 743d 1d87 2abd b43f 19bd

lstm.weight_hh_l0 f4 [512, 128]
0.045629945 -0.013608801 -0.020703759 0.021296725 0.06995225 -0.06798046 0.038951043 -0.012926349
0.0494744 0.05666832 -0.06747268 -0.0044751186 0.06340877 0.032056578 0.027198676 0.07347916
0.0010594137 0.06854408 0.035081305 0.0228406 0.063907236 0.03881449 0.08596293 0.05946528
-0.019400971 0.046529654 -0.076249 0.03708049 -0.0858711 -0.007437522 0.08293075 -0.012754926
0.027313737 0.03911058 -0.005004725 0.095490135 -0.06536031 0.083384894 -0.006328031 0.018684302
-0.025424184 -0.06708119 0.0674753 -0.019668851 -0.067386135 0.06492908 -0.05435851 0.06478596
0.10215809 0.050517756 0.055040326 0.0065552434 0.07657439 0.044251796 -0.033319015 0.063841194
0.054255154 0.07132289 0.08000513 -0.070529096 -0.025010113 -0.027939528 -0.0512078 -0.03009742
0.0122432085 0.062041804 -0.024788044 -0.02743678 0.0015954393 -0.009293473 -0.041099444 -0.04405785
-0.050324664 0.035330523 -0.031482514 -0.035739657 -0.07566727 0.044888537 0.072475545 -0.03966759
-0.045610033 -0.016689679 -0.08168485 -0.07193911 0.0055694594 -0.0003440856 0.052424178 -0.025684152
0.07199617 0.0018173472 -0.0483337 -0.037784204 -0.038297582 0.017966947 0.08074819 -0.068873316
0.09096959 0.068716474 -0.06981802 0.08652812 -0.04400438 -0.06641649 -0.021246595 -0.010978712
0.0704538 -0.08501814 -0.068062924 -0.05794484 0.00838955 -0.074479684 -0.03303175 0.025883632
0.008759582 -0.024629932 0.04465949 -0.06849487 -0.01832615 -0.04367808 0.06228507 -0.06362825
0.057507187 0.03946533 -0.04003686 -0.029044261 -0.061390433 0.011800235 -0.052261837 0.0018057245
-0.0011439074 0.07461107 0.017221643 0.014004448 0.027682874 -0.04614099 0.0037731077 -0.07538761
-0.038434763 0.041751623 -0.04101805 0.04451271 -0.07750421 -0.026824279 -0.07181705 -0.05285528
-0.06873389 0.057816524 -0.008575738 -0.031004502 -0.0020055904 0.06254052 0.04980603 0.07485867
-0.056399394 -0.054243978 -0.054691445 0.07665417 -0.07611639 0.0059080916 0.073620826 0.078321286
-0.042833894 0.023781214 0.019276502 -0.044554956 0.08772583 0.07690738 -0.026244398 -0.029528225
-0.004635158 -0.052552428 -0.0155786155 -0.024075497 -0.022153392 0.016784573 -0.04436782 0.073765494
-0.008601078 -0.065978445 0.010068272 0.08964926 -0.058465164 -0.08925307 0.07674418 0.06508397
-0.006886339 -0.020527113 -0.08749489 0.083115324 -0.0127463555 0.022432359 -0.057861164 -0.06149138
0.006870206 0.058488082 0.06534018 -0.04566676 0.07898277 -0.042404935 -0.067421086 -0.061214656
0.040511835 0.040727522 -0.04753872 0.010550186 0.087840475 -0.038314864 -0.031555366 -0.100613184
-0.01647805 0.0012164895 0.011925107 -0.013153581 0.044410992 -0.06864359 -0.015868472 -0.014165444
0.059739154 0.002874755 0.017244631 -0.029241763 0.084689155 0.01357648 0.083451636 -0.058479875
0.010320629 0.0849241 -0.005192715 -2.8998242e-05 0.07258921 -0.041496284 -0.059124988 0.05336283
0.013607217 -0.025902627 0.069366425 -0.007929217 -0.06823195 0.060118817 -0.045574643 0.08690945
-0.058930095 0.046406664 0.05037944 0.087482534 0.017662087 -0.0045836023 -0.09283503 -0.030145762
-0.04101395 0.07723928 -0.03169974 -0.069606334 -0.05392363 0.05363503 -0.0058612465 0.06718543
00000000: 77e6 3a3d 73f7 5ebc ee9a a9bc 7876 ae3c
00000010: 2043 8f3d 5739 8bbd 218b 1f3d 0ac9 53bc
00000020: aba5 4a3d 0a1d 683d 1e2f 8abd 04a4 92bb
00000030: 75dc 813d c24d 033d c2cf de3c 3e7c 963d
00000040: 06dc 8a3a d760 8c3d 6ab1 0f3d 361c bb3c
00000050: cce1 823d f1fb 1e3d 550d b03d de91 733d
00000060: c9ee 9ebc e195 3e3d 7028 9cbd b6e1 173d
00000070: 30dd afbd 75b6 f3bb 99d7 a93d 0afa 50bc
00000080: 0fc1 df3c 6a32 203d adfe a3bb 5590 c33d
00000090: a0db 85bd b3c5 aa3d 5f5b cfbb d20f 993c
000000a0: 6146 d0bc dd61 89bd 7d30 8a3d 9220 a1bc
000000b0: be01 8abd 8af9 843d 07a7 5ebd 80ae 843d
000000c0: 4338 d13d b5eb 4e3d f771 613d 5ecd d63b
000000d0: 09d3 9c3d 5f41 353d 8579 08bd 2cbf 823d
000000e0: a73a 5e3d bc11 923d bbd9 a33d 8f71 90bd
000000f0: 02e2 ccbc 70e1 e4bc 45bf 51bd dd8e f6bc
00000100: bd97 483c 8c1f 7e3d 4c10 cbbc 19c3 e0bc
00000110: 0f1e d13a a743 18bc e457 28bd 0176 34bd
00000120: 3c21 4ebd bdb6 103d cff3 00bd bf63 12bd
00000130: 71f7 9abd 0bdd 373d 0f6e 943d 7c7a 22bd
00000140: 96d1 3abd cbb8 88bc 634a a7bd d054 93bd
00000150: 0380 b63b 6366 b4b9 bcba 563d 9267 d2bc
00000160: ba72 933d 0e34 ee3a 8ff9 45bd 9cc3 1abd
00000170: eddd 1cbd 6b2f 933c 4f5f a53d 740d 8dbd
00000180: 444e ba3d 39bb 8c3d c0fc 8ebd a835 b13d
00000190: f03d 34bd 5e05 88bd 570d aebc 0ee0 33bc
000001a0: 154a 903d fe1d aebd 9364 8bbd 9257 6dbd
000001b0: 5374 093c ce88 98bd 4d4c 07bd e909 d43c
000001c0: 5a84 0f3c b6c4 c9bc dfec 363d 0a47 8cbd
000001d0: b920 96bc c9e7 32bd a11e 7f3d 874f 82bd
000001e0: a88c 6b3d 66a6 213d b1fd 23bd 3bee edbc
000001f0: 8974 7bbd c655 413c 8210 56bd 0fae ec3a
00000200: 2aef 95ba b0cd 983d 6714 8d3c ea72 653c
00000210: 32c7 e23c 56fe 3cbd 3e46 773b d264 9abd
00000220: c56d 1dbd c003 2b3d 8b02 28bd f652 363d
00000230: 87ba 9ebd 97be dbbc d114 93bd c77e 58bd
00000240: 5bc4 8cbd 05d1 6c3d 4181 0cbc 27fd fdbc
00000250: 3970 03bb 3f15 803d 6801 4c3d 814f 993d
00000260: 0d03 67bd ef2e 5ebd 2304 60bd ddfc 9c3d
00000270: e9e2 9bbd aa98 c13b 84c6 963d e966 a03d
00000280: 9872 2fbd d2d0 c23c c1e9 9d3c 427f 36bd
00000290: 9aa9 b33d 9e81 9d3d 7efe d6bc 2de5 f1bc
000002a0: 86e2 97bb 3741 57bd 733d 7fbc fa39 c5bc
000002b0: 087b b5bc cd7f 893c 08bb 35bd 5d12 973d
000002c0: 89eb 0cbc b51f 87bd 65f5 243c 089a b73d
000002d0: 2b79 6fbd 50ca b6bd 0d2c 9d3d bf4a 853d
000002e0: cca6 e1bb 7a28 a8bc 8530 b3bd 5e38 aa3d
000002f0: 17d6 50bc 11c4 b73c d4ff 6cbd 63de 7bbd
00000300: 771f e13b 3391 6f3d 13d1 853d 120d 3bbd
00000310: b8c1 a13d ccb0 2dbd 1114 8abd 38bc 7abd
00000320: bdef 253d e7d1 263d f6b7 42bd b0da 2c3c
00000330: b5e5 b33d 0cf0 1cbd 3340 01bd 490e cebd
00000340: fafc 86bc 9d72 9f3a 8661 433c 1e82 57bc
00000350: 4de8 353d 0395 8cbd 99fe 81bc 2e16 68bc
00000360: 0bb1 743d 6366 3c3b 9d44 8d3c 6c8c efbc
00000370: 8271 ad3d e26f 5e3c b1e8 aa3d 9888 6fbd
00000380: db17 293c b0ec ad3d a727 aabb 4041 f3b7
00000390: a7a9 943d 02f8 29bd 0b2d 72bd fc92 5a3d
000003a0: cef0 5e3c bf31 d4bc fc0f 8e3d 8ce9 01bc
000003b0: 31bd 8bbd 263f 763d 7aac 3abd 95fd b13d
000003c0: af60 71bd ea14 3e3d ac5a 4e3d 0b2a b33d
000003d0: 15b0 903c 0b32 96bb 4b20 bebd 3ff4 f6bc
000003e0: 3efe 27bd a12f 9e3d 96d7 01bd c48d 8ebd
000003f0: 06df 5cbd 68b0 5b3d b30f c0bb 8498 893d

lstm.bias_ih_l0 f4 [512]
-0.007201671 0.04992971 -0.008242165 0.04637973 0.0077990037 -0.06455147 -0.016260456 -0.020046202
0.07216626 -0.06708495 0.09153554 0.071724534 -0.00878127 -0.052568488 0.05028916 0.07099781
0.03476842 -0.04035505 -0.013564506 -0.024245134 0.04054395 -0.0640338 -0.037609983 0.04612131
-0.04097648 -0.00789713 -0.047185298 0.010807637 0.10856595 -0.017251415 -0.054834794 0.0920767
-0.05884926 -0.061186418 0.046099707 0.055351064 -0.001661919 -0.030151747 -0.017471978 -0.07367176
0.022412825 0.06286526 0.07318527 -0.016746534 -0.021112753 -0.059301335 0.07002885 -0.032256942
-0.03351653 -0.02095105 0.074351944 0.100298405 0.033430673 -0.069638446 -0.053717557 0.05809122
0.08457872 -0.08297491 -0.007898345 -0.014353822 -0.06413165 0.03348952 0.030404998 -0.04322047
0.005674142 0.081963055 -0.0044812104 0.08107606 0.043387856 -0.030203916 0.018248256 0.062166497
0.05321623 0.0092679905 0.0022503184 0.076715246 0.06377949 0.0029133237 0.08898951 -0.025618922
0.07215079 0.05973326 0.0408323 -0.06274538 -0.07656171 0.0418661 -0.016695336 0.04859783
0.099044524 -0.054898627 -0.030829327 0.0838045 -0.025786178 0.054745518 0.09509911 -0.04883632
0.017138017 0.016253393 0.032318402 -0.021228237 -0.032997735 0.078544274 0.06321698 -0.029208375
-0.014581455 0.042819638 0.03137508 0.050217483 -0.04539836 0.06196528 -0.04099626 0.07698545
-0.005524345 0.046131466 -0.01958243 -0.046637114 0.10141744 0.06254632 -0.07868123 -0.046805218
-0.010663511 0.049227975 0.06411718 0.044485077 -0.063032605 -0.05573991 0.003995121 0.06552944
0.0850628 0.028016979 0.014254095 0.08288946 -0.049675357 -0.013503863 0.019384343 -0.04891171
-0.022842685 -0.022144489 0.0648387 -0.0009897341 0.011223681 -0.0428079 -0.011639475 -0.025597762
-0.052841354 0.04478615 0.07831906 -0.051625825 -0.036552157 0.06849206 -0.0819215 -0.0034389764
-0.025349269 -0.05436947 0.041721717 0.021072669 0.07400733 0.008134615 0.04149282 -0.055471323
-0.042594146 -0.012224405 -0.06897953 -0.06463355 0.064117074 -0.07678938 -0.06601906 0.08135736
-0.025654137 -0.054976232 -0.0045417612 -0.024033256 0.028238755 -0.038552 0.032871414 -0.020998685
0.005043349 -0.038981162 0.02901047 0.0088190865 -0.008564041 -0.072328866 0.09410687 0.027623411
-0.07655758 0.00015751181 0.026489867 -0.09121385 0.06674716 0.083658256 0.097902775 0.030319663
0.05738729 -0.05967695 -0.08337147 0.10473448 0.043561243 -0.0555436 0.030415308 -0.05855435
-0.06539119 0.04975892 0.019375002 0.025361475 0.07087786 0.076143056 0.04392236 -0.00025747487
-0.02612977 0.010061294 -0.005777417 -0.041167215 0.00064018415 -0.07662673 0.06572797 0.021119777
-0.053597525 0.07528961 -0.02894566 -0.058823694 0.03133761 0.03739909 -0.015022239 -0.07974524
-0.033223275 -0.025114095 0.08615555 -0.036927138 -0.016461013 -0.036347073 -0.06670789 -0.08937826
-0.06733462 -0.025146035 0.005218468 0.05048462 -0.011806344 0.0018360392 0.0521874 0.07178762
0.027084164 0.10651663 0.09994438 0.030148465 0.01234165 0.02919441 0.011835563 0.002213545
-0.032894228 0.07235328 0.0890774 -0.05897419 -0.036947627 -0.025600092 0.06111729 -0.04746776
00000000: fffb ebbb 1883 4c3d 250a 07bc acf8 3d3d
00000010: c98e ff3b 9033 84bd a634 85bc ef37 a4bc
00000020: e7cb 933d d663 89bd fc76 bb3d 50e4 923d
00000030: 51df 0fbc 0e52 57bd 02fc 4d3d 4d67 913d
00000040: 5569 0e3d 564b 25bd a93d 5ebc bb9d c6bc
00000050: 6a11 263d 2724 83bd ed0c 1abd b3e9 3c3d
00000060: f4d6 27bd f762 01bc 5f45 41bd 8412 313c
00000070: d357 de3d d752 8dbc 739a 60bd b592 bc3d
00000080: ec0b 71bd 9c9e 7abd 0cd3 3c3d ccb7 623d
00000090: c0d4 d9ba cc00 f7bc 6521 8fbc 38e1 96bd
000000a0: 1a9b b73c 80bf 803d 29e2 953d 0730 89bc
000000b0: a7f4 acbc f5e5 72bd 496b 8f3d db1f 04bd
000000c0: a148 09bd 89a1 abbc d545 983d 4069 cd3d
000000d0: 9aee 083d 9a9e 8ebd f106 5cbd 0ff1 6d3d
000000e0: 9c37 ad3d c0ee a9bd 0f68 01bc 4b2c 6bbc
000000f0: 7457 83bd 4f2c 093d e713 f93c f307 31bd
00000100: 27ee b93b 3fdc a73d 1ed7 92bb 350b a63d
00000110: 77b7 313d 346e f7bc 5e7d 953c 4ca2 7e3d
00000120: 43f9 593d c5d8 173c 147a 133b e21c 9d3d
00000130: d29e 823d 76ed 3e3b 2240 b63d c6de d1bc
00000140: cbc3 933d ddaa 743d c53f 273d a680 80bd
00000150: 63cc 9cbd ca7b 2b3d a8c4 88bc 850e 473d
00000160: dbd7 ca3d 62dd 60bd c98d fcbc b2a1 ab3d
00000170: 893d d3bc d63c 603d 52c3 c23d 9808 48bd
00000180: 0765 8c3c d625 853c 4d60 043d d7e6 adbc
00000190: a228 07bd d2db a03d e777 813d 6746 efbc
000001a0: 0ee7 6ebc a563 2f3d 2883 003d d9b0 4d3d
000001b0: a1f3 39bd 4ecf 7d3d b2eb 27bd 8caa 9d3d
000001c0: 9105 b5bb 59f4 3c3d 556b a0bc 8f06 3fbd
000001d0: f2b3 cf3d 4918 803d a023 a1bd d4b6 3fbd
000001e0: 02b6 2ebc 46a3 493d de4f 833d fc35 363d
000001f0: 3d17 81bd 884f 64bd 81e9 823b 4d34 863d
00000200: 6835 ae3d dd83 e53c 028a 693c f3c1 a93d
00000210: 6378 4bbd 4e3f 5dbc eacb 9e3c a557 48bd
00000220: 9520 bbbc 5c68 b5bc 27ca 843d f7b9 81ba
00000230: 88e3 373c 5657 2fbd 7fb3 3ebc 66b2 d1bc
00000240: 2d70 58bd af71 373d be65 a03d 9a75 53bd
00000250: b7b7 15bd 9145 8c3d 76c6 a7bd 7360 61bb
00000260: 45a9 cfbc 85b2 5ebd 64e4 2a3d 97a0 ac3c
00000270: 2891 973d 0c47 053c 60f4 293d e635 63bd
00000280: 3377 2ebd df48 48bc 2445 8dbd 985e 84bd
00000290: d04f 833d c043 9dbd 0035 87bd b09e a63d
000002a0: a028 d2bc c22e 61bd 0ed3 94bb 64e1 c4bc
000002b0: f654 e73c b4e8 1dbd 2da4 063d 6f05 acbc
000002c0: ae42 a53b b6aa 1fbd 5da7 ed3c ee7d 103c
000002d0: 3150 0cbc 2821 94bd 1abb c03d 7e4a e23c
000002e0: 38ca 9cbd c129 2539 4701 d93c 54ce babd
000002f0: bcb2 883d 0555 ab3d 4081 c83d f160 f83c
00000300: ef0e 6b3d d16f 74bd a9be aabd 087f d63d
00000310: 466d 323d b081 63bd 8629 f93c b0d6 6fbd
00000320: d1eb 85bd 02d0 4b3d 53b8 9e3c dec2 cf3c
00000330: 6928 913d e4f0 9b3d efe7 333d b1fd 86b9
00000340: 190e d6bc 20d8 243c 7d50 bdbb f49e 28bd
00000350: 08d2 273a 7aee 9cbd 639c 863d 6203 ad3c
00000360: 1489 5bbd 7031 9a3d 731f edbc 1df1 70bd
00000370: de5b 003d ca2f 193d d61f 76bc 7951 a3bd
00000380: 2115 08bd 13bc cdbc 5272 b03d e940 17bd
00000390: 3fd9 86bc abe0 14bd 259e 88bd f30b b7bd
000003a0: bce6 89bd 0fff cdbc afff aa3b f6c8 4e3d
000003b0: 656f 41bc 41a7 f03a 75c2 553d 6305 933d
000003c0: 9cdf dd3c 6425 da3d a4af cc3d eaf9 f63c
000003d0: a234 4a3c 1e29 ef3c f3e9 413c 1f11 113b
000003e0: 19bc 06bd f52d 943d 366e b63d ec8e 71bd
000003f0: 6556 17bd 49b7 d1bc 2056 7a3d 8e6d 42bd

lstm.bias_hh_l0 f4 [512]
-0.016454445 0.059723347 0.07532432 0.107513875 -0.0525628 0.05107374 0.039653525 -0.08644307
0.032533396 -0.06121047 0.090969086 -0.0084695835 -0.045523953 0.031020356 -0.013913352 -0.026349843
0.09829106 0.06040205 0.006451335 0.06514794 -0.049177304 0.039161067 0.054589305 0.07216711
-0.011194192 -0.024848767 0.0941042 0.07586195 0.08150782 0.0965275 0.02284056 0.040925
0.08803781 0.07372469 0.08537213 0.01745175 -0.017024338 0.028008288 0.08276891 -0.021344844
-0.049955178 0.017504536 -0.062446766 0.070365876 -0.007815847 -0.011349876 -0.05991729 -0.07986257
0.07670949 0.06505061 -0.013283829 0.10941489 -0.0666504 0.041826338 0.022566088 -0.060278405
0.085355446 -0.06430249 -0.029728357 -0.068931155 0.045560066 -0.051312372 0.050995886 0.038932893
-0.04345 0.032638323 0.03902646 0.05531701 -0.069666356 0.033015676 -0.011584259 0.098523796
-0.03631496 -0.042903855 0.07388544 -0.0042071836 -0.024655133 0.001189325 -0.049212005 0.02372098
-0.05651822 -0.04681889 -0.06433772 -0.04712187 0.020098077 0.012375638 0.10311183 -0.023824474
0.020505525 0.012899539 -0.009049847 0.01994923 0.054336913 -0.017677745 0.004402474 -0.011945893
0.04568015 -0.05046945 0.042178214 0.08406532 0.05923617 -0.049639996 -0.03827723 0.009474263
0.037767794 -0.052415904 -0.060850073 0.0036906048 -0.05728812 -0.052923515 -0.021532858 -0.027749097
-0.04367989 -0.0027304704 0.054274593 -0.007582794 -0.05619094 0.00728144 -0.01393393 0.008015571
-0.010543285 -0.0577516 0.05262409 0.05029569 0.0663808 0.038572196 -0.015965324 5.717793e-05
0.032833695 0.10261919 0.007966735 -0.02115394 -0.004452922 -0.057507973 0.055418592 0.072158046
-0.079958 -0.05761979 0.10497539 0.0055797575 -0.038053393 0.06260501 -0.052916605 -0.025783058
-0.037079856 -0.0092928875 -0.052308407 -0.0525164 -0.016585357 0.08894057 -0.08336146 0.05140284
-0.068649285 0.027929038 0.06508936 0.04070519 0.030322747 0.08584038 0.033378143 -0.05184757
0.011863053 -0.01994957 0.026850892 0.009184818 -0.07121487 0.002986967 0.044374753 0.015068544
-0.054721814 0.07762337 0.011599821 0.0074314093 -0.015125589 0.0097740255 0.04281665 -0.017076978
0.01654727 0.053582937 -0.038134053 -0.016208418 -0.016019905 0.04099219 0.049281664 0.012270262
0.06755673 0.064726576 0.016153218 -0.07221681 0.03759903 0.03990519 0.07450117 0.060201034
-0.01968799 9.391943e-05 -0.0658482 -0.014362006 -0.020225024 -0.062475696 -0.018082175 0.055748086
-0.013649876 -0.06513984 0.024522739 0.0794648 0.038505215 0.049834426 0.027019456 -0.0470029
0.010317659 0.046620842 0.03366703 -0.006209011 -0.052058734 0.012671282 -0.027671097 -0.06312391
0.08724866 -0.068603136 0.055993475 -0.053996917 0.033225395 0.047860097 0.069467895 -0.029049106
-0.08329899 -0.015393419 0.0098811565 -0.05342744 -0.03859616 -0.017144088 -0.06586231 -0.07699694
-0.008088473 -0.041553196 0.030309677 -0.017943457 0.07741964 -0.031302955 0.0728525 -0.035932492
0.030748244 0.065464534 0.0526205 0.04103299 -0.023828862 -0.011322935 -0.06755479 -0.036597703
-0.02349251 -0.07761552 0.04882507 0.08846464 0.07027747 0.033466026 -0.009661866 0.031371098
00000000: 79cb 86bc 78a0 743d a343 9a3d 3c30 dc3d
00000010: 174c 57bd b332 513d bc6b 223d 1009 b1bd
00000020: bd41 053d d4b7 7abd 004e ba3d 02c4 0abc
00000030: 5377 3abd 671e fe3c d4f4 63bc a0db d7bc
00000040: d34c c93d 2468 773d b865 d33b 486c 853d
00000050: 246e 49bd 5b67 203d 0999 5f3d 5acc 933d
00000060: d867 37bc a48f cbbc b4b9 c03d 835d 9b3d
00000070: 92ed a63d 36b0 c53d 201c bb3c f9a0 273d
00000080: 2b4d b43d f8fc 963d 95d7 ae3d f9f6 8e3c
00000090: a076 8bbc a371 e53c bf82 a93d 62db aebc
000000a0: cd9d 4cbd ac65 8f3c 2ec8 7fbd fc1b 903d
000000b0: 0a0e 00bc d5f4 39bc d56b 75bd fd8e a3bd
000000c0: dd19 9d3d 4139 853d 6ba4 59bc ea14 e03d
000000d0: 0180 88bd 1852 2b3d 84dc b83c 7de6 76bd
000000e0: d6ce ae3d 06b1 83bd e288 f3bc c72b 8dbd
000000f0: 319d 3a3d ec2c 52bd 10e1 503d 1978 1f3d
00000100: a1f8 31bd c3af 053d 36da 1f3d 1794 623d
00000110: 3cad 8ebd 723b 073d e7cb 3dbc d8c6 c93d
00000120: ffbe 14bd f4bb 2fbd 4051 973d 6adc 89bb
00000130: 90f9 c9bc 20e3 9b3a 8792 49bd 8052 c23c
00000140: a67f 67bd 2ac5 3fbd 7fc3 83bd dd02 41bd
00000150: b9a4 a43c 30c3 4a3c 4c2c d33d 8b2b c3bc
00000160: 34fb a73c 9758 533c cf45 14bc 916c a33c
00000170: 6290 5e3d ebd0 90bc a142 903b b5b8 43bc
00000180: 1c1b 3b3d 0eb9 4ebd 10c3 2c3d 702a ac3d
00000190: a0a1 723d 4f53 4bbd 96c8 1cbd f039 1b3c
000001a0: 67b2 1a3d 0fb2 56bd ed3d 79bd 13de 713b
000001b0: f3a6 6abd 54c6 58bd ad65 b0bc 1352 e3bc
000001c0: afe9 32bd b1f1 32bb 094f 5e3d 1679 f8bb
000001d0: 7928 66bd 2599 ee3b 234b 64bc be53 033c
000001e0: bebd 2cbc f18c 6cbd 5c8c 573d da02 4e3d
000001f0: a8f2 873d e1fd 1d3d b6c9 82bc 56d2 6f38
00000200: a07c 063d 032a d23d e986 023c 074b adbc
00000210: d1e9 91bb 7b8d 6bbd 9bfe 623d 99c7 933d
00000220: 05c1 a3bd bb02 6cbd 56fd d63d 66d6 b63b
00000230: e0dd 1bbd 0e37 803d 15bf 58bd fe36 d3bc
00000240: 0ce1 17bd 3241 18bc 5741 56bd 701b 57bd
00000250: 04de 87bc 7926 b63d 6ab9 aabd c98b 523d
00000260: ff97 8cbd 70cb e43c 924d 853d 7cba 263d
00000270: 6967 f83c 15cd af3d 85b7 083d 1e5e 54bd
00000280: 405d 423c 486d a3bc 67f6 db3c eb7b 163c
00000290: 1ad9 91bd fec0 433b 4dc2 353d 0ee2 763c
000002a0: fb23 60bd 00f9 9e3d 2d0d 3e3c 2e83 f33b
000002b0: 52d1 77bc 3c23 203c 8360 2f3d 05e5 8bbc
000002c0: 248e 873c c879 5b3d 7432 1cbd 84c7 84bc
000002d0: 2d3c 83bc 6de7 273d 92db 493d 3609 493c
000002e0: 2f5b 8a3d 5e8f 843d c153 843c 68e6 93bd
000002f0: 7101 1a3d a073 233d 1294 983d 5c95 763d
00000300: b548 a1bc 9cf6 c438 6cdb 86bd 9f4e 6bbc
00000310: f3ae a5bc 84e6 7fbd 1221 94bc 1b58 643d
00000320: bba3 5fbc 0968 85bd e9e3 c83c 71be a23d
00000330: a5b7 1d3d 2f1f 4c3d e857 dd3c 1d86 40bd
00000340: 660b 293c 7ff5 3e3d 71e6 093d f674 cbbb
00000350: 8a3b 55bd 359b 4f3c 7fae e2bc 1c47 81bd
00000360: 6daf b23d cd7f 8cbd 6a59 653d df2b 5dbd
00000370: 5a17 083d f308 443d 2f45 8e3d 64f8 edbc
00000380: a998 aabd ae34 7cbc 93e4 213c bbd6 5abd
00000390: 0217 1ebd c271 8cbc d2e2 86bd 92b0 9dbd
000003a0: 8485 04bc af33 2abd 004c f83c 28fe 92bc
000003b0: 308e 9e3d 8737 00bd b133 953d f32d 13bd
000003c0: bee3 fb3c 4512 863d 9888 573d 3512 283d
000003d0: bf34 c3bc d583 39bc 2a5a 8abd 79e7 15bd
000003e0: 5d73 c0bc e3f4 9ebd ccfc 473d f32c b53d
000003f0: a2ed 8f3d ac13 093d ce4c 1ebc fb7e 003d

linear.0.weight f4 [64, 150]
0.061390325 0.013993431 0.048353042 0.07286788 0.036683064 -0.029817432 -0.034362342 -0.07088037
0.050310705 0.007245104 0.058686074 0.037783645 0.07732773 -0.07274699 0.0028002572 -0.020977758
-0.048098963 0.07360241 -0.054830596 0.025950665 0.07537998 0.08100653 -0.018922018 0.03584536
0.02997961 0.033560522 -0.06879749 -0.08461894 -0.0046279305 -0.0119429985 -0.054756906 0.026707878
-0.0287144 0.04833351 -0.08019781 0.07054763 -0.08564033 -0.020332826 0.04278124 0.083611876
-0.056387242 -0.047816567 -0.043624174 -0.07765367 -0.064858876 -0.01758796 -0.0857327 0.0062630903
-0.008090021 -0.07225705 0.035454344 -0.07297812 0.03238345 0.026898768 -0.009101452 0.020271767
-0.08677457 -0.0194094 0.004540405 0.059697106 0.0523933 0.069089554 -0.0004150856 -0.013813145
-0.045262415 0.05455952 0.042747606 0.055477 0.03749568 -0.010831785 -0.010727905 -0.0575503
-0.051266976 0.037398655 -0.041298725 0.06820461 0.032089446 -0.03707409 -0.03100995 0.030364102
-0.06465289 -0.0168973 0.09050062 -0.02935908 0.0019300471 0.046335712 -0.04259703 0.008080898
-0.047675706 0.053030863 0.0073056673 -0.056108765 0.06707845 -0.0042273235 0.066822305 0.027637174
-0.040521216 -0.04054208 0.067767486 -0.07977038 -0.014824482 -0.026482599 -0.048316494 0.021755952
0.06440509 0.0005320557 0.01922577 0.03410627 0.06860125 0.04213789 -0.035304893 -0.03378517
-0.034144137 -0.064014785 0.024243481 0.08095508 -0.029965423 0.008939482 0.059225153 0.0023039277
-0.029464547 0.048812594 -0.033557527 0.06679483 -0.057298914 0.003041968 0.08610895 -0.09614707
0.041319013 -0.053931214 -0.006643801 0.019245358 0.0092283115 0.02019595 -0.06751204 -0.058791395
-0.0058519584 0.052578494 0.06638707 -0.031486403 0.060062546 0.06706573 -0.06501223 -0.00973863
0.039798778 0.025262743 -0.075558014 -0.05735247 0.044381052 -0.028953934 0.029632742 0.012957164
-0.030747565 -0.00598256 0.0050676963 0.059137672 -0.054078218 -0.010746385 0.03807054 0.037629463
-0.04019828 0.01281279 0.08489773 -0.01968157 -0.034259718 0.06907134 0.06492747 -0.029377557
-0.006463499 0.028515622 0.0152737275 0.019613367 -0.037035044 -0.0084837675 0.0649167 -0.04432775
-0.0061196904 0.056474697 0.061698508 0.056962356 0.051303294 0.018589588 -0.0016915415 0.05421659
0.001644372 -0.06347186 -0.05858999 -0.06832119 -0.07636278 -0.07776551 0.057033602 -0.05119566
-0.06400153 -0.034334876 -0.011770569 0.09180035 -0.06361242 0.009941189 -0.061502077 0.07453465
-0.011595134 -0.03593912 0.011623098 -0.027400274 0.06699092 -0.003664021 0.07658973 -0.03551786
0.04988011 -0.08588665 -0.043952845 -0.0100675635 -0.037733678 0.06744008 -0.024736675 -0.07378465
-0.0854449 0.035113085 -0.013106638 -0.0063378443 0.038873546 0.022757713 0.0014030088 0.02915407
0.02263687 -0.07484513 0.09543043 -0.011378496 -0.02613975 -0.06868318 0.086668864 0.082097314
-0.03387839 0.06625415 0.05646004 -0.053978357 0.03807069 0.025980655 -0.028054131 -0.07517732
0.053443164 -0.06998161 -0.09022112 0.09693483 -0.061818298 -0.030172655 -0.020145614 -0.03454604
-0.06458642 -0.05670427 0.0566809 0.067908294 0.00565468 0.060071707 0.06784639 -0.019940607
00000000: 6c74 7b3d b444 653c d70d 463d c13b 953d
00000010: fb40 163d b043 f4bc 87bf 0cbd ba29 91bd
00000020: 9912 4e3d 5668 ed3b cf60 703d 06c3 1a3d
00000030: 005e 9e3d 60fc 94bd 8584 373b 8cd9 abbc
00000040: 6b03 45bd dcbc 963d 0c96 60bd 7d96 d43c
00000050: d260 9a3d c0e6 a53d 5902 9bbc 96d2 123d
00000060: cd97 f53c c276 093d b3e5 8cbd b24c adbd
00000070: e5a5 97bb 91ac 43bc c748 60bd 7bca da3c
00000080: 763a ebbc 5cf9 453d c03e a4bd 477b 903d
00000090: 3364 afbd 0791 a6bc 623b 2f3d b43c ab3d
000000a0: 4ff6 66bd 4edb 43bd 43af 32bd e308 9fbd
000000b0: bbd4 84bd a014 90bc a094 afbd 9c3a cd3b
000000c0: 028c 04bc 81fb 93bd 9338 113d 8d75 95bd
000000d0: 82a4 043d ce5a dc3c 421e 15bc fa10 a63c
000000e0: deb6 b1bd 7600 9fbc adc7 943b f484 743d
000000f0: 5b9a 563d d37e 8d3d d99f d9b9 8850 62bc
00000100: 1565 39bd ce79 5f3d 1d18 2f3d da3b 633d
00000110: 1295 193d cd77 31bc 18c4 2fbc ddb9 6bbd
00000120: 52fd 51bd 552f 193d da28 29bd dcae 8b3d
00000130: 3970 033d 00db 17bd 9408 febc 23be f83c
00000140: bc68 84bd 356c 8abc 6458 b93d 7482 f0bc
00000150: a2f9 fc3a 84ca 3d3d 397a 2ebd be65 043c
00000160: 9a47 43bd e436 593d 6164 ef3b 4ed2 65bd
00000170: 6d60 893d 5c85 8abb 22da 883d 5b67 e23c
00000180: 93f9 25bd 740f 26bd aec9 8a3d a75e a3bd
00000190: 62e2 72bc 09f2 d8bc 84e7 45bd 8a39 b23c
000001a0: d1e6 833d a779 0b3a 5d7f 9d3c 04b3 0b3d
000001b0: d07e 8c3d c898 2c3d dd9b 10bd 5262 0abd
000001c0: b9da 0bbd 2f1a 83bd 449a c63c c7cb a53d
000001d0: 0c7a f5bc e876 123c 1396 723d 7efd 163b
000001e0: a25f f1bc b7ef 473d 9e73 09bd bacb 883d
000001f0: 44b2 6abd c15b 473b e459 b03d c1e8 c4bd
00000200: 203e 293d fae6 5cbd 3eb4 d9bb 71a8 9d3c
00000210: 5832 173c fa71 a53c c143 8abd 3fcf 70bd
00000220: c9c1 bfbb 8c5c 573d f2f5 873d e3f7 00bd
00000230: 2504 763d c259 893d 2225 85bd c68e 1fbc
00000240: 0b04 233d d0f3 ce3c 29be 9abd 6cea 6abd
00000250: e8c8 353d cd30 edbc 5dc0 f23c 494a 543c
00000260: 51e2 fbbc 5a09 c4bb eb0e a63b 583a 723d
00000270: 1f81 5dbd 9b11 30bc dbef 1b3d 5a21 1a3d
00000280: f4a6 24bd bdec 513c dcde ad3d 3e3b a1bc
00000290: eb53 0cbd 4675 8d3d b2f8 843d 34a9 f0bc
000002a0: c2cb d3bb 9899 e93c a83e 7a3c 36ac a03c
000002b0: 0fb2 17bd 80ff 0abc 0cf3 843d 0491 35bd
000002c0: af87 c8bb 0352 673d 93b7 7c3d 5c51 693d
000002d0: 6723 523d 3149 983c b7b6 ddba 3712 5e3d
000002e0: f887 d73a 89fd 81bd 0ffc 6fbd fbeb 8bbd
000002f0: 1764 9cbd 8643 9fbd 119c 693d 8ab2 51bd
00000300: 3c13 83bd baa2 0cbd 58d9 40bc d201 bc3d
00000310: 3a47 82bd 5ee0 223c 9ae9 7bbd 9fa5 983d
00000320: 84f9 3dbc e634 13bd ce6e 3e3c 8a76 e0bc
00000330: 8932 893d 1220 70bb 14db 9c3d 2d7b 11bd
00000340: 164f 4c3d 57e5 afbd e607 34bd 6cf2 24bc
00000350: a18e 1abd 061e 8a3d 91a4 cabc 681c 97bd
00000360: bcfd aebd bdd2 0f3d 39bd 56bc b1ad cfbb
00000370: de39 1f3d 626e ba3c 2ae5 b73a 84d4 ee3c
00000380: f570 b93c 6748 99bd 0771 c33d df6c 3abc
00000390: 0723 d6bc c4a9 8cbd 727f b13d a322 a83d
000003a0: 11c4 0abd 41b0 873d a542 673d 6918 5dbd
000003b0: 03f0 1b3d 62d5 d43c c7d1 e5bc 91f6 99bd
000003c0: 38e7 5a3d 8552 8fbd dac5 b8bd c585 c63d
000003d0: 2f35 7dbd a52c f7bc 6a08 a5bc 2680 0dbd
000003e0: e345 84bd bd42 68bd 3b2a 683d 8113 8b3d
000003f0: e54a b93b c00d 763d 0cf3 8a3d 7c5a a3bc

linear.0.bias f4 [64]
0.03775587 -0.049198203 0.066928744 -0.059364762 -0.03443714 0.049938716 -0.0008348071 -0.047977414
0.05439259 0.039475437 0.024257056 -0.037783474 0.036434215 0.06746603 0.08458987 -0.015072844
-0.04399101 -0.08267659 -0.057386808 -0.03200263 0.032393772 0.054714162 -0.057878062 -0.035377722
0.053585794 0.03954391 0.006899452 0.027925903 0.04189562 0.06957651 -0.026695995 0.030600075
-0.03692906 -0.024447065 0.00056487456 -0.07219074 0.027722953 0.043477304 0.044082962 -0.07557857
0.0064709196 -0.007824765 0.06456035 -0.034189943 0.0071240333 0.048588514 -0.0710457 -0.023707319
0.04714852 0.08146854 -0.06609312 -0.023103563 -0.054789133 -0.005625097 -0.033227157 -0.046551038
-0.027592078 -0.029978069 0.07395699 -0.031767588 -0.01185691 -0.061099425 0.071117006 0.02124657
00000000: e6a5 1a3d 0e84 49bd f011 893d 7728 73bd
00000010: f50d 0dbd 8a8c 4c3d f5d6 5aba f783 44bd
00000020: c4ca 5e3d ffb0 213d bcb6 c63c d8c2 1abd
00000030: 0b3c 153d a12b 8a3d 743d ad3d 17f4 76bc
00000040: eb2f 34bd 5852 a9bd 6e0e 6bbd 3115 03bd
00000050: 55af 043d f51b 603d 8c11 6dbd 3be8 10bd
00000060: c77c 5b3d ccf8 213d cc14 e23b ddc4 e43c
00000070: be9a 2b3d 217e 8e3d 8fb1 dabc 02ad fa3c
00000080: ed42 17bd 3645 c8bc 1714 143a bdd8 93bd
00000090: 3f1b e33c 4215 323d 5690 343d f0c8 9abd
000000a0: 020a d43b 7133 00bc 3738 843d c10a 0cbd
000000b0: b970 e93b c004 473d 6880 91bd da35 c2bc
000000c0: ce1e 413d fad8 a63d d45b 87bd af43 bdbc
000000d0: 926a 60bd bc52 b8bb 3319 08bd 4dac 3ebd
000000e0: c808 e2bc 9194 f5bc c376 973d bb1e 02bd
000000f0: 7c43 42bc 6443 7abd cba5 913d 490d ae3c

classifier.0.weight f4 [128, 192]
0.010802666 -0.074854985 0.058808774 -0.014397281 0.018585201 0.04150326 -0.034002386 -3.639146e-05
-0.011140905 0.021663848 -0.016860101 0.050219312 -0.056674186 -0.0083072595 -0.045935493 -0.049508076
0.0050510685 0.046343878 0.008704973 0.052059233 -0.031493653 0.004493531 0.06554242 0.052396722
-0.036004648 -0.024253486 -0.019950178 0.042480998 0.0412235 0.03522445 -0.04654882 -0.059973642
-0.080344215 -0.04857292 0.049194355 0.02113209 -0.042701013 -0.022454893 -0.031275008 0.017587032
-0.07026677 -0.024097132 -0.0032538623 0.058609005 -0.009239399 -0.027684897 -0.051203553 0.024368856
-0.04892346 0.013640378 0.05739057 0.03563521 -0.039927416 0.026533967 -0.034793194 -0.028015511
0.033039518 -0.017359018 -0.04893727 0.062886335 -0.032533094 0.057509933 0.001355532 0.027942419
-0.011473056 0.0076816645 0.03087511 -0.027884737 -0.045754462 -0.0391185 0.069046244 -0.02613132
0.0192374 0.04918538 0.04490596 0.06662725 0.013500289 -0.06413467 -0.059775885 -0.014724176
-0.035478745 -0.041647274 -0.047969155 0.06500811 0.014681258 -0.04728697 0.0152774025 -0.07537873
-0.03597428 -0.04603121 -0.04920448 -0.036048107 0.058769856 0.045524944 0.009999761 0.054395925
-0.041192584 -0.026395656 0.022251192 -0.008285781 0.037870985 0.07176287 -0.032050446 -0.007508708
0.009334519 -0.007865267 0.05966494 -0.03779091 -0.0021628635 -0.047153994 0.0057179336 0.076362185
-0.055184424 0.048231754 -0.053819865 0.022087144 0.02565377 0.04023023 -0.0180377 0.026073638
-0.035017274 0.04645286 -0.025960129 -0.014953541 -0.00510399 0.029800827 -0.0016460842 0.07542525
-0.06463404 -0.011197878 -0.040871087 0.07450427 -0.044823285 -0.07378701 -0.053854518 -0.049411442
-0.032255903 -0.06845719 -0.03666664 -0.06928764 -0.01912498 0.06838962 0.044796143 0.06817092
0.023552265 0.042010754 0.040068965 -0.017621951 0.0048708054 -0.06112085 0.0115773 0.01142648
-0.025786681 0.013765365 0.028084306 0.019936714 -0.032988776 -0.05462248 0.050407894 -0.016700178
0.044689152 0.084469445 0.027056402 0.052180182 -0.03430935 0.05316043 0.025972696 -0.044752445
-0.05545557 -0.064197466 -0.034465734 0.044505715 0.06794694 -0.031461477 0.040889703 -0.015468342
-0.06776267 -0.062284753 0.04139227 -0.04189245 -0.018234108 -0.037201174 -0.042559188 0.009637933
-0.028470472 0.08564138 0.02684761 0.009552067 -0.022838239 -0.008397677 -0.004205166 0.02327335
0.07798193 0.04967738 0.005130195 -0.017951319 -0.050383974 0.002777227 0.011973294 0.043012973
-0.037526626 -0.05966316 -0.032366924 -0.017025795 -0.054590758 -0.064459056 0.055947367 -0.002089953
0.05231904 0.07713589 -0.053750888 -0.024846936 0.028325295 0.057226717 -0.06382417 0.05302935
-0.03438205 0.02671529 0.06300749 0.017679501 0.019792583 -0.016746642 0.0657957 -0.07669262
-0.030141931 -0.011819906 0.058852777 -0.033540465 0.024167357 0.03738853 -0.013533521 -0.07273535
-0.037984405 0.000119515295 -0.055931576 -0.045283284 -0.057698328 -0.06261345 -0.03617584 -0.05522353
0.025371026 0.06925893 0.008968071 0.007288504 0.074960485 -0.02881624 -0.042002 -0.07742857
-0.014286329 -0.026796259 0.0119038625 0.0035602893 -0.06293904 -0.0668818 0.0028025175 -0.032096475
00000000: aafd 303c 924d 99bd 78e1 703d 93e2 6bbc
00000010: fe3f 983c 53ff 293d 1646 0bbd 08a3 18b8
00000020: 5888 36bc 6278 b13c 321e 8abc c4b2 4d3d
00000030: 3123 68bd 2c1b 08bc db26 3cbd fbc8 4abd
00000040: 6f83 a53b 14d3 3d3d 4e9f 0e3c 103c 553d
00000050: 7dff 00bd 783e 933b 1b3b 863d f29d 563d
00000060: 9c79 13bd 3faf c6bc 8e6e a3bc 8e00 2e3d
00000070: f9d9 283d 8347 103d faa9 3ebd eca6 75bd
00000080: 828b a4bd 66f4 46bd 0580 493d 341d ad3c
00000090: 42e7 2ebd 53f3 b7bc 391a 00bd ae12 903c
000000a0: 06e8 8fbd 5967 c5bc c03e 55bb ff0f 703d
000000b0: d960 17bc 70cb e2bc d1ba 51bd 32a1 c73c
000000c0: f763 48bd e47b 5f3c 6012 6b3d 3af6 113d
000000d0: ee8a 23bd c35d d93c 4f83 0ebd c980 e5bc
000000e0: 7254 073d 8034 8ebc 7272 48bd 8dca 803d
000000f0: 6c41 05bd 898f 6b3d 1bac b13a 80e7 e43c
00000100: 7cf9 3bbc 79b6 fb3b cced fc3c 886e e4bc
00000110: 0869 3bbd b83a 20bd 1e68 8d3d 5a11 d6bc
00000120: c097 9d3c 9c76 493d 50ef 373d de73 883d
00000130: 5130 5d3c 0a59 83bd 8fd7 74bd ac3d 71bc
00000140: 2952 11bd 5596 2abd 4e7b 44bd f922 853d
00000150: a989 703c fbaf 41bd 124e 7a3c 2a60 9abd
00000160: c459 13bd 398b 3cbd a38a 49bd 2ea7 13bd
00000170: a9b8 703d 5d78 3a3d 0ad6 233c 43ce 5e3d
00000180: 8eb9 28bd b43b d8bc 2248 b63c 16c1 07bc
00000190: 9b1e 1b3d 69f8 923d 5447 03bd 9c0b f6bb
000001a0: cfef 183c 52dd 00bc 3963 743d a4ca 1abd
000001b0: d4be 0dbb 8c24 41bd 815d bb3b c763 9c3d
000001c0: 1009 62bd a98e 453d 3872 5cbd 19f0 b43c
000001d0: db27 d23c 74c8 243d ccc3 93bc 6298 d53c
000001e0: 466e 0fbd 5b45 3e3d 56aa d4bc b2ff 74bc
000001f0: 5f3f a7bb dd20 f43c 6cc1 d7ba 8e78 9a3d
00000200: da5e 84bd 4e77 37bc 7168 27bd b295 983d
00000210: 9f98 37bd a51d 97bd 8e96 5cbd a763 4abd
00000220: c41e 04bd 4933 8cbd c22f 16bd aee6 8dbd
00000230: fdab 9cbc db0f 8c3d 297c 373d 329d 8b3d
00000240: aef0 c03c 7813 2c3d 5b1f 243d e95b 90bc
00000250: 479b 9f3b db59 7abd b7ae 3d3c 2136 3b3c
00000260: 973e d3bc 2088 613c 0f11 e63c 5252 a33c
00000270: 3d1f 07bd d2bb 5fbd 8278 4e3d d0ce 88bc
00000280: f90b 373d 51fe ac3d 63a5 dd3c e3ba 553d
00000290: f687 0cbd c0be 593d b1c4 d43c 574e 37bd
000002a0: 6125 63bd f679 83bd f12b 0dbd a04b 363d
000002b0: c427 8b3d c0dd 00bd f67b 273d ee6e 7dbc
000002c0: 28c7 8abd 4c1e 7fbd f18a 293d 6b97 2bbd
000002d0: b25f 95bc 4260 18bd 8b52 2ebd 6ce8 1d3c
000002e0: e83a e9bc bf64 af3d 85ef db3c 4680 1c3c
000002f0: 4217 bbbc 6996 09bc 7dcb 89bb c1a7 be3c
00000300: fdb4 9f3d 827a 4b3d 321b a83b a50e 93bc
00000310: 6d5f 4ebd 2302 363b a32b 443c 5f2e 303d
00000320: 85b5 19bd 5c61 74bd 2e93 04bd ae79 8bbc
00000330: 8f9a 5fbd 1c03 84bd 1129 653d 98f7 08bb
00000340: 7d4c 563d 6cf9 9d3d e429 5cbd cd8b cbbc
00000350: 730a e83c 9066 6a3d 3fb6 82bd 4e35 593d
00000360: 31d4 0cbd 06da da3c 120a 813d 9ad4 903c
00000370: 0e24 a23c 4130 89bc e5bf 863d 0511 9dbd
00000380: 36ec f6bc 47a8 41bc 9c0f 713d ba61 09bd
00000390: 9ffa c53c b724 193d b4bb 5dbc 45f6 94bd
000003a0: 8995 1bbd 49a4 fa38 8218 65bd f77a 39bd
000003b0: 1555 6cbd 7b3b 80bd 1e2d 14bd 1132 62bd
000003c0: e6d6 cf3c a0d7 8d3d d1ee 123c 67d4 ee3b
000003d0: e284 993d 0910 ecbc 4a0a 2cbd df92 9ebd
000003e0: 3511 6abc d483 dbbc 6b08 433c be53 693b
000003f0: 2fe6 80bd 53f9 88bd 71aa 373b 9877 03bd

classifier.0.bias f4 [128]
0.07676787 -0.047880944 0.07032806 -0.053083938 0.006133163 -0.0019761957 0.0054363767 0.05606134
0.008293203 -0.0023347058 -0.026222829 0.074342184 0.06285657 -0.01386143 -0.04730193 0.02538571
-0.0032655688 0.018831316 -0.048743498 0.026083773 0.028207628 -0.043876745 0.04441116 0.022999471
-0.05562277 0.018080814 0.064971976 -0.005766839 0.05283658 0.073881604 -0.04951503 0.042775538
0.06456506 0.040222142 -0.0047949734 0.06504749 0.06990083 -0.019112268 -0.042481717 -0.033907734
0.04772259 0.041197594 0.008539631 0.05489896 0.030296609 0.071944065 -0.06714474 0.009709291
-0.040407706 0.047557063 0.006986527 0.03246544 0.054404434 0.051676992 0.010830131 -0.017220572
0.025359454 0.0056883525 0.038098842 -0.013041161 -0.047333308 -0.010174821 -0.016643882 0.040194403
-0.0184475 -0.030974003 -0.050453875 -0.040228818 0.076427184 -0.0018034143 0.045851033 -0.020015214
0.07111947 0.0016318588 -0.061987203 0.062882505 -0.00444883 -0.046733424 0.00090543384 0.021122284
-0.03112358 -0.0030788798 0.043493677 -0.05697066 0.06782229 0.059897292 -0.014908891 0.030017514
-0.019990942 -0.042747505 0.005283184 -0.009769037 0.015731918 -0.009285619 -0.051891785 0.048353154
0.069802076 -0.031095369 0.047738392 0.049299795 0.013146949 0.0070512095 -0.049732324 0.060213186
0.014864897 0.023523113 -0.0013672076 0.050166387 -0.057714567 -0.06396174 0.07239791 0.071443945
0.0717389 0.02120803 0.0017247528 0.009684108 0.07020385 -0.017066564 0.026102692 -0.058322567
-0.048050776 0.0005923724 0.027225818 0.06328387 -0.0119900275 -0.04378548 -0.04596159 0.002471575
00000000: 7938 9d3d cf1e 44bd 2808 903d 8b6e 59bd
00000010: b3f8 c83b 1083 01bb a223 b23b 93a0 653d
00000020: 37e0 073c dd01 19bb 42d1 d6bc b740 983d
00000030: f2ba 803d 0d1b 63bc abbf 41bd b1f5 cf3c
00000040: 2703 56bb 2244 9a3c 43a7 47bd a3ad d53c
00000050: af13 e73c 1ab8 33bd 7ae8 353d 6369 bc3c
00000060: b4d4 63bd 371e 943c 0710 853d c0f7 bcbb
00000070: 2b6b 583d 3d4f 973d 46d0 4abd 6735 2f3d
00000080: b03a 843d f9bf 243d 271f 9dbb 9e37 853d
00000090: 2b28 8f3d 5591 9cbc 4f01 2ebd d6e2 0abd
000000a0: c378 433d cfbe 283d cfe9 0b3c bbdd 603d
000000b0: 9830 f83c 6957 933d 2e83 89bd b813 1f3c
000000c0: 8d82 25bd 32cb 423d 3cef e43b 7bfa 043d
000000d0: 2fd7 5e3d 41ab 533d dd70 313c 2812 8dbc
000000e0: a1be cf3c 5c65 ba3b 880d 1c3d 98aa 55bc
000000f0: 92e0 41bd 4bb4 26bc c058 88bc e3a2 243d
00000100: 361f 97bc 31bd fdbc b9a8 4ebd f9c6 24bd
00000110: db85 9c3d 8b60 ecba 4bce 3b3d f2f6 a3bc
00000120: 16a7 913d 18e4 d53a 4be6 7dbd 8bc8 803d
00000130: 7ec7 91bb 8c6b 3fbd a35a 6d3a a408 ad3c
00000140: e1f6 febc 08c7 49bb 6d26 323d 115a 69bd
00000150: 6ae6 8a3d dd56 753d 6c44 74bc 4ae7 f53c
00000160: 0bc4 a3bc 0218 2fbd 8f1e ad3b 500e 20bc
00000170: 39e0 803c b522 18bc 7b8c 54bd f50d 463d
00000180: 64f4 8e3d b7bb febc 5589 433d 95ee 493d
00000190: 4d66 573c d50d e73b 1fb4 4bbd 1aa2 763d
000001a0: e68b 733c 8bb3 c03c e033 b3ba 457b 4d3d
000001b0: 1c66 6cbd 5ffe 82bd 5b45 943d 3451 923d
000001c0: d8eb 923d 76bc ad3c 1a11 e23a 18aa 1e3c
000001d0: 09c7 8f3d 2ecf 8bbc 50d5 d53c a5e3 6ebd
000001e0: e4d0 44bd 7049 1b3a ae08 df3c f99a 813d
000001f0: d271 44bc 6758 33bd 3842 3cbd 26fa 213b
